final_checkpoint.pth (torch_old, 37538 bytes, 6 tensors)

fc1.weight f4 [128, 37]
-0.3377706 0.28686935 -0.6459785 -0.5004572 -0.48781756 0.29864165 -0.60781866 -0.28260252
0.025434898 -0.13648006 0.17129283 -0.6694732 -0.50978994 -0.33118737 -0.22921759 -0.33582523
-0.46513495 0.28952393 -0.52966374 -0.108478576 -0.00022610536 0.16389787 -0.4325547 -0.41627795
-0.11325763 -0.2763575 -0.17076525 0.17543076 -0.44401044 -0.16925713 -0.5652033 -0.17321217
0.19234884 -0.6668762 -0.24098775 0.052629955 -0.048013 0.21801351 -0.004395204 -0.28738832
0.18034823 -1.0429664 -0.241145 0.022918237 0.044103898 -0.61871296 0.030951187 0.22067395
0.016628593 -0.18374117 -0.25845608 -0.29511747 -0.019029673 -0.5315507 0.10406178 0.009794467
-0.063700765 0.038150486 -0.050480213 -0.2639107 -0.3413911 -0.15182683 0.040001396 -0.32288924
0.07233892 -0.03526389 0.31631163 -0.093189575 0.257068 0.16082808 -0.53235793 -0.25332922
0.09525267 -0.11538337 0.5103845 -0.40840346 -0.48273015 -0.7490557 -2.159923 -0.09972612
-0.008641541 -0.031492475 0.10739908 0.1746903 -0.005751012 0.052800797 0.01676687 -0.009775616
-0.0130216535 0.00031025484 0.029890787 0.032766584 0.20225297 0.2548315 -0.104304545 0.023005744
-0.052322164 0.07650565 -0.059260696 -0.18710598 0.2501731 0.21677782 0.06784707 0.4283026
-0.15508956 -0.0692406 -0.01868352 0.0363697 0.119874865 -0.007427613 -0.017525522 0.07152074
-0.0718672 -0.0972062 -0.110700816 0.17136359 -0.15148759 -0.033344477 -0.04474555 -0.046903837
0.24731407 0.031327944 -0.12120372 -0.26848015 -0.21842346 -1.0577592 -0.089858875 -0.20735574
-0.18491073 -0.0518606 0.07739265 0.23371935 -0.5436897 -0.39099538 -0.31189066 -1.4846565
-0.28786278 0.047529824 0.0588106 0.07906631 0.2025158 0.16120858 0.41565326 -0.17885067
-0.88782007 -1.0879078 0.07500039 0.015186427 -0.16820975 -0.63796383 0.020057805 0.012064294
0.054810718 -0.24861638 -0.23431991 0.10762145 0.05472459 -0.24178557 0.07047389 -0.06868869
-0.3937036 0.21130803 -0.7395649 -0.28297603 -0.7913703 -0.03259232 0.3524017 -0.016361244
-0.097340785 -0.4434332 0.0647146 -0.0026054033 -0.4170836 -0.323202 -0.46673328 0.3753758
-0.0062328763 -0.31163034 -0.08522646 -0.34350196 0.20591971 -0.042732477 -0.042657267 -0.16327752
0.012124387 -0.045131832 -0.16678995 -0.14521816 -0.25962764 -0.27149606 -0.1855359 0.03706452
-0.16719115 -0.0020006786 -0.09949949 -0.5623148 -0.35826308 0.052964345 -0.15254699 0.024884753
-0.06623441 -0.224364 -0.12025671 -0.31470647 -0.46403602 -0.126977 -0.7255648 -0.14905716
0.15986861 -0.21754076 -0.34037045 0.057673395 -0.6195707 0.20776212 0.15681602 -0.26372683
-0.23075402 -0.15171646 0.106320284 -0.58229125 0.22423361 0.08726856 0.17729577 -0.06135149
-0.022338685 -0.32903 -0.032990996 -0.13014665 -0.51013047 0.12290176 0.18202956 0.9704146
0.1329185 0.07528348 -0.0480843 0.0876053 -0.14074072 -0.28688565 0.13434368 -0.11131092
0.19869487 0.044815063 -0.062937155 -0.122783974 0.06961 -0.057073954 0.08889263 -0.1587099
-0.09726914 0.07427974 -0.24955082 0.14369836 0.1990771 -0.24894094 -0.13025142 -0.32894936
00000000: 45f0 acbe 8ae0 923e d95e 25bf f71d 00bf
00000010: 39c3 f9be 8fe7 983e 019a 1bbf 47b1 90be
00000020: d95c d03c 6ec1 0bbe 6367 2f3e 9862 2bbf
00000030: 9881 02bf 6491 a9be 04b8 6abe 49f1 abbe
00000040: 2b26 eebe 7b3c 943e 0b98 07bf 042a debd
00000050: b216 6db9 d8d4 273e cf77 ddbe 6222 d5be
00000060: 9ef3 e7bd bb7e 8dbe 16dd 2ebe 1fa4 333e
00000070: 5655 e3be be51 2dbe 2ab1 10bf 885e 31be
00000080: 18f7 443e 66b8 2abf 7ec5 76be 8292 573d
00000090: 48a9 44bd ef3e 5f3e a505 90bb 9024 93be
000000a0: 35ad 383e ec7f 85bf b7ee 76be 07bf bb3c
000000b0: 4aa6 343d f963 1ebf 588d fd3c 5af8 613e
000000c0: b038 883c a526 3cbe 5b54 84be a319 97be
000000d0: 1ee4 9bbc b513 08bf 581e d53d f978 203c
000000e0: 8c75 82bd af43 1c3d 57c4 4ebd 4e1f 87be
000000f0: d0ca aebe 7e78 1bbe 81d8 233d bd51 a5be
00000100: 6d26 943d de70 10bd 99f3 a13e 2dda bebd
00000110: 6b9e 833e 1eb0 243e 9c48 08bf 5eb4 81be
00000120: d513 c33d 1e4e ecbd 8fa8 023f 421a d1be
00000130: 6828 f7be 1dc2 3fbf 2e3c 0ac0 353d ccbd
00000140: 4095 0dbc 41fe 00bd 0df4 db3d 04e2 323e
00000150: fc72 bcbb a645 583d ad5a 893c e829 20bc
00000160: c658 55bc b3a9 a239 86dd f43c 4136 063d
00000170: 671b 4f3e 4679 823e 9f9d d5bd 8b76 bc3c
00000180: c44f 56bd ffae 9c3d 58bb 72bd b698 3fbe
00000190: b016 803e 01fb 5d3e 68f3 8a3d 7a4a db3e
000001a0: cccf 1ebe 04ce 8dbd 2e0e 99bc 65f8 143d
000001b0: f480 f53d 5563 f3bb af91 8fbc 7779 923d
000001c0: 1c2f 93bd 0b14 c7bd 1cb7 e2bd f079 2f3e
000001d0: 901f 1bbe 3894 08bd 1c47 37bd 3d1e 40bd
000001e0: e63f 7d3e bb51 003d a839 f8bd 3b76 89be
000001f0: 66aa 5fbe a764 87bf ee07 b8bd 1055 54be
00000200: 3d59 3dbe c86b 54bd 0a80 9e3d 2054 6f3e
00000210: 402f 0bbf 8c30 c8be 22b0 9fbe 3909 bebf
00000220: c062 93be a2ae 423d 62e3 703d 84ed a13d
00000230: 4d60 4f3e dd13 253e 81d0 d43e a124 37be
00000240: 2d48 63bf 9040 8bbf ce99 993d 7ed0 783c
00000250: 2d3f 2cbe 9951 23bf 4450 a43c 51a9 453c
00000260: 3481 603d 4b95 7ebe 8ff1 6fbe a368 dc3d
00000270: e426 603d a396 77be 9d54 903d a8ac 8cbd
00000280: 8593 c9be 2261 583e 2054 3dbf 3ce2 90be
00000290: 3e97 4abf 867f 05bd ff6d b43e 0408 86bc
000002a0: 9b5a c7bd ad09 e3be 1789 843d 6abf 2abb
000002b0: fb8b d5be bc7a a5be aaf7 eebe 4231 c03e
000002c0: 283d ccbb 038e 9fbe 368b aebd 7ddf afbe
000002d0: 9edc 523e 4008 2fbd 63b9 2ebd 3932 27be
000002e0: 5da5 463c 28dc 38bd fcca 2abe 12b4 14be
000002f0: eaed 84be 8801 8bbe 1ffd 3dbe f7d0 173d
00000300: 2834 2bbe d11d 03bb 63c6 cbbd ddf3 0fbf
00000310: 426e b7be 24f1 583d 4735 1cbe 1cdb cb3c
00000320: e8a5 87bd adbf 65be 2649 f6bd 3521 a1be
00000330: 2196 edbe 4206 02be 9dbe 39bf 71a2 18be
00000340: 99b4 233e 01c3 5ebe 0945 aebe f03a 6c3d
00000350: 2f9c 1ebf 98bf 543e 6194 203e 3407 87be
00000360: c84a 6cbe 8f5b 1bbe 73be d93d 0a11 15bf
00000370: 7f9d 653e dcb9 b23d 068d 353e b34b 7bbd
00000380: 9eff b6bc 9f76 a8be 9121 07bd 2a45 05be
00000390: e997 02bf ebb3 fb3d f565 3a3e 176d 783f
000003a0: ca1b 083e 3a2e 9a3d 0bf4 44bd 686a b33d
000003b0: 561e 10be ade2 92be 6491 093e fbf6 e3bd
000003c0: ab76 4b3e 0090 373d 32e5 80bd 2a76 fbbd
000003d0: b08f 8e3d 61c6 69bd 570d b63d d984 22be
000003e0: 0b35 c7bd fa1f 983d 408a 7fbe aa25 133e
000003f0: deda 4b3e 60ea 7ebe a160 05be 0d6c a8be

fc1.bias f4 [128]
-0.05769877 0.06474786 -0.049559414 -0.06775378 -0.046630647 -0.24248296 0.011348135 0.0042480878
-0.16966926 0.39593205 0.043171454 -0.0011954744 0.05533011 -0.060940705 -0.13184759 -0.17940786
0.2756831 -0.030972604 -0.07399054 -0.08679724 -0.11898746 0.041565653 0.100149974 -0.06559698
-0.07717549 0.102991715 0.16730373 -0.14762323 -0.07894467 -0.094816245 0.025630457 0.030492648
-0.04305117 0.042910162 -0.008321839 -0.22459579 0.34469134 0.22945805 0.0016074496 -0.080847904
-0.17185597 -0.0038278366 0.12945464 -0.005694228 -0.02895616 -0.20613706 0.102264926 -0.033040464
-0.32935315 -0.029506348 0.07568739 0.14643417 0.049400594 -0.002080487 -0.047309633 0.00089901185
-0.085470766 -0.01533675 -0.11753816 -0.19230959 -0.099948056 0.028260602 0.05094277 -0.15164688
0.12321184 -0.012996705 0.10481363 0.033291887 -0.1770783 -0.15681879 -0.038164537 -0.13009974
-0.1002452 -0.017100923 -0.27948973 -0.05267838 0.06539861 -0.22830029 0.08184692 -0.07966077
-0.09399383 0.066874065 0.020067398 -0.16713612 -0.07149727 0.12233961 -0.0072064353 -0.1177982
-0.03900746 0.06370148 0.08330737 -0.12736247 -0.083985075 -0.0857056 -0.10533816 0.1266058
-0.11188624 -0.17320545 -0.041561175 -0.13136217 -0.19058584 -0.21701731 0.10823041 0.20075925
-0.30976292 -0.25637314 -0.16649167 -0.22294983 -0.19147635 0.00409757 0.070218906 -0.046955075
0.039013118 -0.058904562 -0.036556393 -0.018030018 0.099285625 0.027808715 0.05786901 -0.16813917
0.26964763 0.0011649624 -0.047082964 -0.2911262 -0.105882786 -0.10780436 0.06058739 -0.04837447
00000000: 8c55 6cbd 879a 843d d0fe 4abd 7ec2 8abd
00000010: c7ff 3ebd 744d 78be 87ed 393c 8b33 8b3b
00000020: c7bd 2dbe 9bb7 ca3e 8dd4 303d 77b1 9cba
00000030: d3a1 623d f69c 79bd 0e03 07be b2b6 37be
00000040: 5626 8d3e 42ba fdbc 5a88 97bd c0c2 b1bd
00000050: b3af f3bd bf40 2a3d 6e1b cd3d b657 86bd
00000060: 2f0e 9ebd 52ed d23d ab51 2b3e 8b2a 17be
00000070: bead a1bd 052f c2bd f7f6 d13c b8cb f93c
00000080: 6c56 30bd 91c2 2f3d 5358 08bc 70fc 65be
00000090: 627b b03e 0df7 6a3e 0fb1 d23a 9693 a5bd
000000a0: 03fb 2fbe 71dc 7abb c28f 043e a696 babb
000000b0: 7835 edbc 9815 53be 4670 d13d 7055 07bd
000000c0: faa0 a8be 4cb7 f1bc fe01 9b3d d7f2 153e
000000d0: 4758 4a3d c858 08bb bfc7 41bd aaab 6b3a
000000e0: 4c0b afbd fe46 7bbc d9b7 f0bd ceec 44be
000000f0: 91b1 ccbd c782 e73c 5ea9 503d 5249 1bbe
00000100: 7d56 fc3d 22f0 54bc 87a8 d63d 135d 083d
00000110: 0454 35be 1b95 20be 6b52 1cbd de38 05be
00000120: 5b4d cdbd 3c17 8cbc 4719 8fbe 49c5 57bd
00000130: b5ef 853d 8dc7 69be 5c9f a73d 3025 a3bd
00000140: d67f c0bd 45f5 883d 6264 a43c bb25 2bbe
00000150: 296d 92bd 308d fa3d f623 ecbb 2f40 f1bd
00000160: 49c6 1fbd ec75 823d 0e9d aa3d 4f6b 02be
00000170: 5e00 acbd 6b86 afbd 89bb d7bd f3a4 013e
00000180: 9d24 e5bd c55c 31be 0d3c 2abd ce83 06be
00000190: ef28 43be c939 5ebe e8a7 dd3d d593 4d3e
000001a0: 3f99 9ebe 5743 83be cb7c 2abe f64c 64be
000001b0: 6012 44be e944 863b eece 8f3d f753 40bd
000001c0: 38cc 1f3d e945 71bd 28bc 15bd b0b3 93bc
000001d0: 4356 cb3d 1acf e33c 0e08 6d3d ad2c 2cbe
000001e0: 410f 8a3e a7b1 983a 11da 40bd 7e0e 95be
000001f0: 13d9 d8bd 88c8 dcbd 7c2a 783d 4f24 46bd

fc2.weight f4 [32, 128]
0.24439177 -0.07031 -0.6387443 0.21074925 -0.2716657 -0.1293235 -0.114898205 0.26673412
-0.088232376 -0.07838052 0.20025899 0.10063587 -0.09704628 -0.24437879 -0.33251128 -0.054670103
0.10766774 -0.00800955 0.20849515 -0.39267963 -0.19815868 -0.080883496 -0.3926056 -0.10852859
-0.049236212 -0.0053185616 0.0708744 -0.4156902 -0.13523945 -0.34044883 -0.08046767 -0.07689486
0.1834495 -0.2113094 0.0023973233 -0.60785145 0.050896224 -0.34176046 -0.0790243 -0.45400673
-0.2997774 -0.23708066 -0.24102533 0.23477566 -0.5016304 -0.34798494 -0.47350174 -0.07816807
-0.58012295 -0.24907209 0.038468085 -0.1340649 -0.07241358 -0.39090547 -0.19800864 -0.76933694
-0.25477687 -0.093729 0.013363686 0.03454249 -0.20614144 -0.3922602 -0.2247118 -0.27869666
0.27242482 0.07161337 0.3440962 0.025285007 -0.18526089 -0.12637426 -0.109665446 -0.08204139
-0.30897042 0.17654163 -0.65964955 -0.44542593 -0.023175003 -0.11092383 -0.0833118 -0.109936245
0.09232333 -0.10844855 0.34551343 -0.3811001 -0.067948826 -0.70228875 -0.23748681 -0.28269026
-0.23122054 0.17826672 -0.24148674 -0.2558343 -0.52062047 -0.03819357 -0.12566772 -0.16682489
-0.6836453 -0.21006493 0.12261665 0.028324692 0.07605888 -0.24729784 -0.26829666 -0.030166874
-0.14096294 -0.31720278 -0.011233131 -0.14486645 0.31086975 0.0009554749 0.055058077 -0.23616807
-0.09609952 0.04275644 -0.80915844 0.05063604 -0.047441352 -0.025640221 -0.56982553 -0.39023915
0.088768825 -0.29968056 -0.22195956 -0.08482402 0.20449118 -0.47766966 -0.0575322 0.11031448
-0.05108492 0.042074043 0.105406374 0.21188077 -0.10464033 -0.302581 -0.21471788 -0.9661446
0.44116718 -0.19184986 -0.011380522 0.11089913 -0.81598544 -0.09907366 -0.47464013 -0.34779248
-0.17733218 0.03225748 -0.08473882 -0.15202764 0.027615119 -0.5904304 0.0985386 -0.44275695
-0.23914653 0.009961573 0.30504474 0.09810141 0.3432143 -0.017385645 -0.04574735 -0.12027801
0.42343032 0.3490276 -0.19135271 -0.30298412 0.14347368 0.10909857 0.060265757 -1.0943432
-0.18025321 -0.17295937 -0.04261522 -0.10657483 -0.16235408 -0.067432225 -0.11773544 0.13484904
-0.52300113 -0.08570138 0.06627172 0.003450737 0.24580956 -0.5000503 -0.07930259 0.22959268
0.011141679 -0.17057309 -0.15656924 -0.36188287 0.040837135 -0.06735289 0.18178375 -0.3830371
-0.14143774 -0.13867399 -0.0015605269 0.2876286 0.32568425 -0.12392696 -0.23120116 -0.067027725
-0.18298128 0.1332627 -0.20999068 -0.1287436 0.022541415 0.055139888 -0.08502542 -0.08037403
0.06389649 0.11377152 -0.3336447 -0.29975218 -0.67446077 0.2397207 -0.30933094 -0.25665402
-0.4463438 -0.12311652 0.39918914 -0.20702548 -0.18617219 -0.50290954 -0.32236755 -0.38968083
-0.51850176 -0.4637673 -0.11358905 -0.4707039 0.03639725 -0.5216534 -0.27743664 0.09336218
-0.041688494 -0.036373883 -0.47849065 -0.1405876 0.044433925 -0.23683901 -0.043781236 0.5756808
0.0533002 0.34633994 0.14371899 -0.758475 -0.29028904 0.1885422 0.053792503 -0.18083158
-0.048042886 -0.24967481 -0.13618366 -0.3485533 0.4584328 0.22533345 -0.13538082 0.10740803
00000000: d641 7a3e b0fe 8fbd bf84 23bf a7ce 573e
00000010: c417 8bbe 616d 04be c04f ebbd 6091 883e
00000020: 2db3 b4bd f785 a0bd b110 4d3e 2e1a ce3d
00000030: 33c0 c6bd 6f3e 7abe eb3e aabe c2ed 5fbd
00000040: e780 dc3d 7d3a 03bc c17f 553e 4e0d c9be
00000050: 1cea 4abe 3fa6 a5bd 9a03 c9be 3d44 debd
00000060: e9ab 49bd 5447 aebb 9926 913d 59d5 d4be
00000070: 367c 0abe 4f4f aebe 3ccc a4bd 0d7b 9dbd
00000080: 30da 3b3e 7e61 58be 691c 1d3b 279c 1bbf
00000090: 8f78 503d 3afb aebe 7ed7 a1bd 9273 e8be
000000a0: 6c7c 99be 46c5 72be 58cf 76be 0869 703e
000000b0: da6a 00bf 152b b2be d26e f2be 9516 a0bd
000000c0: f082 14bf c10c 7fbe b690 1d3d 4f48 09be
000000d0: 924d 94bd c324 c8be c7c2 4abe 44f3 44bf
000000e0: 1d72 82be fdf4 bfbd 5df3 5a3c 6d7c 0d3d
000000f0: be16 53be 54d6 c8be da1a 66be 54b1 8ebe
00000100: 447b 8b3e 08aa 923d 612d b03e 8122 cf3c
00000110: 08b5 3dbe 4168 01be 4798 e0bd 5105 a8bd
00000120: 5f31 9ebe 54c7 343e cbde 28bf de0e e4be
00000130: 81d9 bdbc 082c e3bd 619f aabd 4126 e1bd
00000140: 0414 bd3d 461a debd 23e7 b03e 8d1f c3be
00000150: c128 8bbd 32c9 33bf be2f 73be c7bc 90be
00000160: 14c5 6cbe 8d8b 363e 4d48 77be b7fc 82be
00000170: 6247 05bf dc70 1cbd 0aaf 00be 25d4 2abe
00000180: 6103 2fbf 431b 57be 701e fb3d 2f09 e83c
00000190: c2c4 9b3d a53b 7dbe 2e5e 89be 8520 f7bc
000001a0: 9758 10be 6768 a2be 2b0b 38bc df57 14be
000001b0: 522a 9f3e d678 7a3a 9484 613d 0bd6 71be
000001c0: d3cf c4bd 6021 2f3d 0225 4fbf bc67 4f3d
000001d0: dd51 42bd 710b d2bc 16e0 11bf 6dcd c7be
000001e0: 6ecc b53d bb6f 99be 5e49 63be 37b8 adbd
000001f0: 2366 513e 1e91 f4be e2a6 6bbd 8fec e13d
00000200: 6c3e 51bd d555 2c3d 4cdf d73d 46f7 583e
00000210: ab4d d6bd e6eb 9abe 01df 5bbe 4155 77bf
00000220: aae0 e13e 4a74 44be 5e75 3abc 151f e33d
00000230: 6ce4 50bf 22e7 cabd 0804 f3be db11 b2be
00000240: 9196 35be 6b20 043d 8c8b adbd 22ad 1bbe
00000250: 1a39 e23c 7226 17bf 9bce c93d 0ab1 e2be
00000260: d4e2 74be de35 233c d32e 9c3e 64e9 c83d
00000270: c9b9 af3e 576c 8ebc 9361 3bbd 5154 f6bd
00000280: dccb d83e bfb3 b23e f7f1 43be bc20 9bbe
00000290: c4ea 123e 126f df3d 3ad9 763d 7013 8cbf
000002a0: 4c94 38be 431c 31be 4c8d 2ebd e843 dabd
000002b0: 2640 26be e819 8abd 471f f1bd de15 0a3e
000002c0: 67e3 05bf 3584 afbd 78b9 873d c325 623b
000002d0: 80b5 7b3e 4c03 00bf 6569 a2bd 581a 6b3e
000002e0: 978b 363c b6aa 2ebe b053 20be b648 b9be
000002f0: d744 273d 50f0 89bd 8525 3a3e 701d c4be
00000300: 0ed5 10be 8e00 0ebe 988a ccba 0e44 933e
00000310: 16c0 a63e 6bcd fdbd ffbf 6cbe d545 89bd
00000320: 725f 3bbe 0476 083e cc07 57be 5dd5 03be
00000330: c6a8 b83c 5dda 613d cf21 aebd 249b a4bd
00000340: 2adc 823d 0b01 e93d 7ad3 aabe 1e79 99be
00000350: 76a9 2cbf 5879 753e a060 9ebe 2868 83be
00000360: 2d87 e4be 8424 fcbd 8562 cc3e 7dfe 53be
00000370: eca3 3ebe aebe 00bf 5c0d a5be 3f84 c7be
00000380: 88bc 04bf e872 edbe 60a1 e8bd 1a00 f1be
00000390: 4815 153d 148b 05bf 2d0c 8ebe ac34 bf3d
000003a0: 8ec1 2abd c8fc 14bd bafc f4be 32f6 0fbe
000003b0: 5900 363d ed85 72be f453 33bd d15f 133f
000003c0: 4f51 5a3d 7853 b13e 122b 133e 6b2b 42bf
000003d0: c4a0 94be 3511 413e 8755 5c3d ea2b 39be
000003e0: 9ec8 44bd c1aa 7fbe bb73 0bbe 9475 b2be
000003f0: b4b7 ea3e d0bd 663e 45a1 0abe bef8 db3d

fc2.bias f4 [32]
0.00077216496 -0.10857525 0.6307739 -0.22451599 0.47972906 -0.07190427 -0.029119035 0.0899798
-0.052218895 0.19661593 0.018474517 0.028658995 -0.014147764 0.29495537 0.011586313 0.5978077
0.23676026 -0.12690783 0.05189521 -0.004136961 -0.06145548 -0.11909706 0.012724796 -0.05457361
0.008445503 0.08516681 0.15804596 0.22020537 0.53388363 -0.0644859 0.11393873 0.065194964
00000000: 1d6b 4a3a b35c debd 667a 213f 85e7 65be
00000010: 0c9f f53e 8c42 93bd 0b8b eebc 5447 b83d
00000020: 7be3 55bd b055 493e df57 973c 45c6 ea3c
00000030: 06cc 67bc 6404 973e 85d4 3d3c ed09 193f
00000040: 4871 723e 20f4 01be 1290 543d 588f 87bb
00000050: beb8 7bbd 29e9 f3bd aa7b 503c 9488 5fbd
00000060: 025f 0a3c f06b ae3d cdd6 213e 847d 613e
00000070: 99ac 083f 2f11 84bd b558 e93d f084 853d

fc3.weight f4 [4, 32]
-0.099419944 -0.53974915 0.22197458 -0.16406682 0.2548128 -0.38634148 -0.27832317 0.38061455
-0.2251469 0.031227728 -0.15173389 0.034960534 0.4388636 0.16368024 0.16236879 0.2420051
0.21691447 -0.22361505 0.5489309 -0.1014392 0.10512597 0.35688612 -0.17136599 0.04808732
0.022159055 0.10418836 0.13828729 0.29201052 0.22502606 -0.115983196 0.18881185 0.2608762
0.23023379 0.25357243 0.22035979 -0.18803279 0.08515303 -0.058339633 -0.051843926 0.4558645
-0.20385015 -0.021950115 0.022768727 0.031896632 0.44383213 0.17461973 0.15259232 0.29744446
0.2119609 -0.0786546 0.4653438 -0.4098651 -0.09732213 -0.35138676 -0.024645519 -0.15847747
0.050205927 0.08312645 -0.020032195 0.26539654 0.2568515 0.11840354 0.2567966 0.32937816
0.34313166 -0.36059058 0.30165765 -0.015644204 0.18704969 -0.055399947 -0.3821945 0.4786704
0.08218189 0.16819069 0.026335802 0.20423199 0.16019168 0.09603592 0.059975956 0.25134343
0.16888209 -0.22045706 0.5674578 -0.34636375 0.07384346 -0.456234 -0.24426652 0.031172445
0.01490864 0.30102587 -0.16593824 -0.13122709 0.2041763 -0.1178452 0.42704237 0.011229218
-0.04876712 -0.062025707 0.26327148 -0.11988287 0.171116 -0.54912037 0.17314894 0.03732128
-0.4375713 0.050846167 0.095096655 -0.41542888 0.32790732 0.1978098 0.43623117 0.07866563
0.23502551 -0.1630195 0.35314363 -0.49563095 -0.32392237 0.027206643 -0.10060898 0.034225024
0.24258019 -0.17640902 0.03271744 -0.13052146 0.32836616 -0.2734256 0.35648373 0.28115612
00000000: af9c cbbd 002d 0abf 4e4d 633e 2201 28be
00000010: d376 823e 8dce c5be 6080 8ebe e9df c23e
00000020: e98c 66be 4bd1 ff3c 2160 1bbe c732 0f3d
00000030: bbb2 e03e cb9b 273e 0144 263e 2fd0 773e
00000040: d41e 5e3e 58fb 64be bc86 0c3f 5bbf cfbd
00000050: 494c d73d c7b9 b63e 917a 2fbe 36f7 443d
00000060: e886 b53c b560 d53d 2f9b 0d3e 6782 953e
00000070: 3b6d 663e 9988 edbd e557 413e 9191 853e
00000080: 68c2 6b3e 3fd4 813e ffa5 613e ab8b 40be
00000090: b664 ae3d 8af5 6ebd 4c5a 54bd 1267 e93e
000000a0: 18be 50be bad0 b3bc 7b85 ba3c 0ba6 023d
000000b0: f73d e33e 84cf 323e 2941 1c3e a44a 983e
000000c0: 470c 593e aa15 a1bd 8b41 ee3e d7d9 d1be
000000d0: d350 c7bd f7e8 b3be 66e5 c9bc eb47 22be
000000e0: bba4 4d3d 333e aa3d 8f1a a4bc 0ee2 873e
000000f0: 0a82 833e 8e7d f23d d87a 833e 41a4 a83e
00000100: f4ae af3e 549f b8be df72 9a3e 4628 80bc
00000110: f489 3f3e 0eeb 62bd ffae c3be 4914 f53e
00000120: fb4e a83d 2e3a 2c3e 2ebe d73c 3122 513e
00000130: 4a09 243e 7bae c43d 59a9 753d 16b0 803e
00000140: 6def 2c3e 7fbf 61be ea44 113f 9756 b1be
00000150: 3d3b 973d 8197 e9be 0121 7abe 5b5d ff3c
00000160: 5e43 743c 1020 9a3e b7eb 29be 6560 06be
00000170: 9813 513e d358 f1bd 4ca5 da3e c1fa 373c
00000180: 08c0 47bd ab0e 7ebd 85cb 863e 2685 f5bd
00000190: 0839 2f3e 2793 0cbf f54d 313e 33de 183d
000001a0: 5809 e0be 1244 503d 09c2 c23d 18b3 d4be
000001b0: 78e3 a73e a78e 4a3e b159 df3e 721b a13d
000001c0: 87aa 703e 95ee 26be 3ecf b43e 57c3 fdbe
000001d0: 27d9 a5be 77e0 de3c 150c cebd 8a2f 0c3d
000001e0: f166 783e 91a4 34be b902 063d 6ba7 05be
000001f0: 9c1f a83e 71fe 8bbe 0985 b63e b2f3 8f3e

fc3.bias f4 [4]
0.2686829 0.2841834 0.30126864 0.35705066
00000000: ce90 893e 7d80 913e e23f 9a3e 58cf b63e
